제주시 농산물 가격 예측 2023.12.11/DLinear_model.pth (torch, 19523 bytes, 4 tensors)

weight f4 [28, 72]
000000 86 14 d7 3a 4f 2c 71 3a c4 1e d4 b9 9a 7b b9 ba
       0.0016409315 0.0009200023 -0.00040458713 -0.0014151216
000010 d4 53 03 39 90 1e ac ba 1a f3 f4 ba 8a fb f8 ba
       0.00012524362 -0.0013131667 -0.0018688173 -0.0018995863
000020 66 2b 14 bb a7 2d 25 bb 23 ed 2d bb 99 1d 16 ba
       -0.0022608875 -0.0025204213 -0.002653905 -0.00057264563
000030 5a 74 96 ba a2 86 10 ba 38 d5 5a ba a0 20 9c ba
       -0.0011478767 -0.0005513226 -0.0008347812 -0.0011911578
000040 cf a9 5c ba 40 8f 58 ba d1 0e 4e 3b b5 51 21 3b
       -0.00084176374 -0.0008261092 0.0031441937 0.0024615352
000050 f9 26 87 3b 03 34 b2 3b 2a df 47 3b 3f ce 56 3b
       0.004124519 0.005438329 0.0030498006 0.003277674
000060 b0 6b 37 3b b3 1e e4 3b 7f 6f d1 3b 9e 43 d6 3b
       0.002798777 0.0069616674 0.006391465 0.0065388223
000070 8b 6c df 3b a3 ea 60 3b 44 a8 22 3b f8 9c b3 3a
       0.0068183593 0.0034319542 0.0024819532 0.0013703397
000080 03 44 89 3b 4d fa 45 3b 68 7b 08 3b da 90 3a 3a
       0.004189016 0.0030209005 0.002082551 0.00071169215
000090 97 32 2d bb 0d 7f 8b bb 36 60 e4 bb a3 50 c6 ba
       -0.002642786 -0.004257089 -0.006969477 -0.0015130233
0000a0 cd 6d 5c bb bd 01 80 bb e9 cf 7a bb ee 60 13 bc
       -0.0033634782 -0.003906457 -0.0038270897 -0.008995278
0000b0 bb 50 28 bc c5 40 3d bc 82 e7 80 bb 3f a3 7b bb
       -0.010273154 -0.011551087 -0.003933848 -0.0038396863
0000c0 7c 7d 91 bb bb f9 34 bb f9 06 a4 bb c4 ff 38 bb
       -0.0044400077 -0.0027614671 -0.005005714 -0.002822862
0000d0 1f 2f 42 ba 6c 73 33 3c 03 48 7c 3c 8c 5c af 3c
       -0.0007407534 0.010952812 0.015398028 0.021406434
0000e0 f8 08 d1 3c 9d 49 e0 3c a3 2a 1b 3d 01 18 2e 3d
       0.025516972 0.027378852 0.03788246 0.04250336
0000f0 24 38 43 3d 41 51 53 3d 05 9e 69 3d 28 36 7e 3d
       0.04766096 0.05159116 0.057035465 0.062063366
000100 9c ef 7e 3d 33 89 88 3d 50 e3 8f 3d 21 a5 95 3d
       0.062240228 0.06666794 0.07025778 0.073068865
000110 0a ac 9d 3d 5e 9f a6 3d cc 05 ae 3d b8 06 a8 3d
       0.076988295 0.08135866 0.084971994 0.082044065
000120 f7 0a a8 3b 77 d7 92 3b d3 07 6c 3b 52 2b d8 3a
       0.0051282602 0.004481252 0.0036015406 0.0016492403
000130 c2 7e cd 39 a6 e6 75 3a 8c 04 f1 b9 a1 9e 0f bb
       0.0003919509 0.00093803776 -0.0004597049 -0.0021914619
000140 05 d2 40 bb a2 18 71 bb cf f1 7f bb 2e 21 8b bb
       -0.0029422056 -0.0036788364 -0.0039054041 -0.0042458987
000150 09 4a 5a bb e0 ac 65 bb be 44 74 bb ef 51 61 bb
       -0.0033308289 -0.0035045668 -0.003727242 -0.0034381112
000160 36 72 69 bb 89 6b 30 bb 34 b7 f1 ba a9 42 c0 3a
       -0.0035621054 -0.0026919565 -0.001844144 0.0014668304
000170 8a 2f b2 3a 8e 6f 2c 3b 5a 32 80 3b 7e 64 09 3b
       0.001359449 0.002631161 0.0039122524 0.002096444
000180 07 cc 0f 3b 0d 90 07 3b 2a ce 9c 3b 56 cd 89 3b
       0.0021941678 0.0020685226 0.004785319 0.004205386
000190 b6 b4 ab 3b bf d7 b5 3b 31 09 38 3b 78 a9 ee 3a
       0.0052400483 0.0055494006 0.002808165 0.0018208465
0001a0 1c d5 f2 3a 1d 00 a6 3b 43 be 85 3b 9f a1 2f 3b
       0.0018526646 0.0050659315 0.004081519 0.0026799215
0001b0 8b 74 5b 39 09 01 22 bb b7 cb a2 bb 80 78 ea bb
       0.00020928883 -0.0024719855 -0.0049681324 -0.007155478
0001c0 24 7b 51 bb a1 6a 96 bb 87 d1 a6 bb f3 ce b3 bb
       -0.0031964267 -0.004590348 -0.0050908956 -0.0054873168
0001d0 c7 6a 1d bc 4e 16 2d bc a3 af 22 bc 97 0e 14 bb
       -0.009607977 -0.0105644 -0.00992957 -0.0022591704
0001e0 b7 54 7a ba 46 48 c8 ba a4 33 80 3a 20 8b f0 b7
       -0.00095493667 -0.0015280328 0.0009781015 -2.8675015e-05
0001f0 68 78 e9 3a 27 ee a9 3b 69 93 85 3c 8a b4 ae 3c
       0.0017812373 0.0051858607 0.016305642 0.021326322
000200 29 33 e6 3c b0 99 04 3d 4f 64 11 3d db b7 27 3d
       0.028100567 0.03237313 0.035496052 0.040946823
000210 f6 67 3d 3d 03 0a 58 3d d7 ca 6b 3d 20 7b 81 3d
       0.046241723 0.052743923 0.05756649 0.06322312
000220 9e b8 8b 3d 9d c5 8c 3d 3e 8e 96 3d bb 82 9d 3d
       0.06822322 0.06873629 0.07351349 0.076909505
000230 47 e4 a3 3d 3c e7 ab 3d c7 cc b3 3d a8 85 b6 3d
       0.08002525 0.08393714 0.087792926 0.08912212
000240 47 56 ce 3b 58 7c b7 3b 5b 45 48 3b 6e f1 8d 3b
       0.006296906 0.0055995397 0.0030558917 0.004331759
000250 18 82 29 3b 8a 4c 5a ba 50 96 14 3b 2d 2c 3b 3a
       0.0025864895 -0.0008327445 0.00226726 0.00071400666
000260 0d bc 15 ba 4f 79 38 bb 1c d0 67 bb fc ce 70 bb
       -0.00057119207 -0.0028148477 -0.0035371846 -0.0036744466
000270 da 79 8b bb 42 85 32 bb b3 ed 54 bb 56 96 37 bb
       -0.004256469 -0.0027240072 -0.0032490313 -0.0028013191
000280 6f 4c 26 bb 21 9a 2b bb c1 5f f6 ba ea 86 d8 ba
       -0.0025375148 -0.0026184397 -0.0018796847 -0.00165197
000290 be 42 6b 3a 26 29 5f 3a 80 4b 74 3a 43 31 b4 3a
       0.0008974484 0.00085129065 0.00093191117 0.0013747591
0002a0 b6 c4 6e ba af 2e 74 ba fb ff 10 bb fc 32 87 3a
       -0.00091082917 -0.0009314818 -0.0022125232 0.0010314877
0002b0 24 0c 1e 3a e5 46 89 3a 6b 61 5d 3b ce 4c 23 ba
       0.0006029031 0.0010473399 0.003377999 -0.00062294013
0002c0 19 2e 96 ba b1 17 59 ba 96 68 e3 3a a0 11 95 3a
       -0.001145783 -0.00082814234 0.0017349895 0.001137305
0002d0 58 06 2a ba 06 62 20 bb 99 46 c1 bb 11 87 d4 bb
       -0.00064859306 -0.002447249 -0.0058983085 -0.0064858277
0002e0 ac e0 0a bc 00 99 87 bb b2 b7 ae bb 6e 7e c6 bb
       -0.0084764175 -0.004138112 -0.005331957 -0.006057552
0002f0 3a be c9 bb 06 99 1f bc f1 32 10 bc d2 87 ff bb
       -0.00615671 -0.0097410735 -0.008801208 -0.0077981735
000300 3e c8 22 ba 80 1a 99 3a fe ab 6b 3a ad 6a 8c 3b
       -0.0006209648 0.0011680871 0.00089901674 0.0042851777
000310 92 7f 73 3b cc 61 f4 3b 1d 54 3d 3c d9 e8 bd 3c
       0.0037154895 0.0074579474 0.011555699 0.02318232
000320 94 a8 f4 3c e6 52 16 3d 11 1a 2f 3d 71 00 34 3d
       0.02986554 0.03670015 0.04274947 0.043945733
000330 78 cc 44 3d da 26 57 3d 82 e5 6b 3d a6 67 7b 3d
       0.04804656 0.052527286 0.057591923 0.061378144
000340 09 2c 85 3d 98 85 8d 3d 8b e8 8d 3d 43 64 94 3d
       0.0650254 0.069102466 0.0692912 0.07245686
000350 f4 fc 9b 3d cd 2c a1 3d 9b ad a8 3d 7e 64 ac 3d
       0.07616606 0.07869873 0.082362376 0.08417605
000360 70 70 30 bb 7c 38 17 bb 52 a5 24 bb 3b 6f 46 bb
       -0.0026922487 -0.0023074439 -0.0025122953 -0.00302787
000370 f4 c5 60 bb 8c c6 93 bb a8 fc ae bb 93 ef 8a bb
       -0.0034297677 -0.0045097526 -0.0053401776 -0.0042399853
000380 e0 e0 a9 bb dd a1 b8 bb 32 b6 b9 bb b6 76 bd bb
       -0.005184278 -0.00563453 -0.0056674713 -0.0057819737
000390 74 ca b5 bb 45 8c c1 bb 16 64 ac bb 7b db 9d bb
       -0.005547816 -0.005906614 -0.0052609546 -0.004817424
0003a0 64 56 9a bb 34 22 a1 bb 8f 0d 90 bb 37 18 73 bb
       -0.0047100056 -0.0049174074 -0.0043961476 -0.003709329
0003b0 5b 7c 71 bb f9 d6 24 ba cd 85 6d ba e8 70 90 ba
       -0.0036847803 -0.0006288137 -0.00090607704 -0.0011019977
0003c0 da b2 cd b7 40 92 00 bb 54 3b 18 bb 17 44 5b bb
       -2.4521189e-05 -0.0019618422 -0.0023228722 -0.0033457333
0003d0 ae 3e a3 b9 0a 34 f0 b9 ae 87 3d b9 a4 5c 02 3a
       -0.00031136483 -0.0004581514 -0.00018074989 0.0004972911
0003e0 65 d8 fc ba 50 a7 20 bb 71 d5 1e bb 80 4c aa 38
       -0.0019290565 -0.0024513789 -0.0024236108 8.120481e-05
0003f0 f4 af 4d ba 18 2d f7 ba f2 85 55 bb 15 99 9a bb
       -0.00078463485 -0.0018858043 -0.0032581058 -0.004717956

bias f4 [28]
000000 75 86 5b bd af 1c 9e 3d dd 4b 94 3d e3 f3 c1 bd
       -0.053595025 0.07720315 0.07241032 -0.09470346
000010 40 b9 8c 3c ad 53 b5 bc 4e f5 a9 bd a6 f2 06 3c
       0.017178178 -0.022134626 -0.08298741 0.008236563
000020 70 1e b4 bd 56 eb d6 ba 92 67 ae 3d aa e4 42 3d
       -0.08794868 -0.001639704 0.08515848 0.047581352
000030 95 8e 01 3d 39 33 72 3c 01 3a 4f 3d 1e d9 36 3d
       0.031630117 0.01478272 0.050592426 0.044640653
000040 43 fe d9 3c 0e 26 40 3c f8 b7 11 3c 9a 9e e7 3b
       0.0266105 0.011727823 0.008893959 0.0070684673
000050 7f 11 9c bd a2 18 1d bd 11 7b 63 3d 11 21 39 bd
       -0.076205246 -0.03835357 0.055537287 -0.04519755
000060 23 b9 b5 3b e1 de 8f 3b f2 c7 9e 3c 78 04 96 bb
       0.0055457517 0.004390583 0.01938245 -0.0045781694

weight f4 [28, 72]
000000 8d 73 c7 3c d1 e6 d4 bb 82 c1 03 3c 1e 88 98 ba
       0.024347091 -0.006497242 0.008041741 -0.0011637246
000010 93 c6 87 3c b7 f7 c6 ba a9 98 e5 3b 40 a3 60 bc
       0.01657418 -0.0015180026 0.007006724 -0.013710797
000020 1e 85 b9 bc bc 68 3b 3d f6 32 10 3c 06 6b 4e 3c
       -0.022646483 0.04575418 0.0088012125 0.012598759
000030 ef 57 0a 3c a1 ec 24 bb 03 55 b4 bc 3a 07 38 bc
       0.008443817 -0.0025165456 -0.022013193 -0.011232192
000040 fe 3b 57 3d d0 fe 77 bc 7c 3e 64 3a ad 05 95 3c
       0.052547447 -0.015136436 0.00087068207 0.018191183
000050 22 85 28 3b 2e 22 d9 3b 16 36 6b 3b bd 31 58 3d
       0.002571412 0.006626389 0.0035890392 0.05278181
000060 d2 c4 b3 3a f0 82 b9 3c 5f d0 d5 bc 43 2c 90 3b
       0.0013715273 0.022645444 -0.026100336 0.0043998077
000070 57 22 2c bc 64 0e f2 3b 02 75 a2 3d 8f 63 35 bc
       -0.010506234 0.0073869694 0.07932474 -0.0110711
000080 ff eb dc 3c 62 d5 82 3c 05 fd d7 bb 69 14 1c 3c
       0.026968 0.01597089 -0.0065914416 0.009526351
000090 98 e9 48 bb 55 a7 c8 3d 54 5e 91 3a b6 35 ba bb
       -0.003065681 0.09797541 0.0011090734 -0.0056826724
0000a0 41 5f 22 3c 53 56 76 bc c9 48 04 bd 26 b1 ee bb
       0.009910406 -0.01503523 -0.032295976 -0.0072843013
0000b0 38 84 96 3d 92 97 9a bb ca 5a 52 bc 59 49 0b bd
       0.073494375 -0.0047177756 -0.012839029 -0.034005497
0000c0 c4 dd f2 3a 2e 1e 47 bd 4b 45 45 bd af f5 e3 3d
       0.0018529226 -0.048612766 -0.048161786 0.11130845
0000d0 1d 0b 23 bd c2 1e 01 bd 7b 12 5d bc 80 88 48 bd
       -0.03980552 -0.031523474 -0.013493176 -0.0489583
0000e0 74 6a b2 bd 91 17 2a bd 44 49 14 3e a3 ae 2f bd
       -0.087117106 -0.04152638 0.14481074 -0.042891156
0000f0 81 f6 9c bd 7f 24 d0 bc e6 5b 35 bc a7 11 d3 bc
       -0.076642044 -0.025408028 -0.011069274 -0.025765253
000100 e6 e1 e4 bc 5e 12 3c 3e d5 8a 9f 3c 2d 9a 26 3d
       -0.027939748 0.18366382 0.01947538 0.040674377
000110 89 f0 21 3c 8b 8f c7 3c e1 57 21 3e 22 03 1c 3d
       0.009884008 0.024360439 0.1575618 0.038088925
000120 06 4b 09 3d 54 a5 bb 3c 74 cb a7 bc 1e a1 a9 3b
       0.033518814 0.022905983 -0.020482756 0.0051766774
000130 ce b0 bd bb 5b 6a 7e 3b 8a 83 70 3b d8 21 9f 3c
       -0.005788899 0.0038820717 0.0036699497 0.019425318
000140 9a 1d 73 bc c9 4f ec bc 57 b1 52 3d ce c9 65 3c
       -0.0148386005 -0.028846638 0.051438656 0.014025165
000150 51 b5 da bb 4d b3 4a 3c d7 96 ff 3b c4 2d 02 bd
       -0.0066744466 0.01237185 0.007799964 -0.031781927
000160 67 6a 82 3b c8 0f 5b 3d 44 b9 9b bb 44 d3 af bc
       0.0039799693 0.053481847 -0.00475231 -0.021463044
000170 0c f2 66 b8 a1 53 8a 3b bc 51 04 3c 34 4c 07 3c
       -5.5061697e-05 0.004221395 0.008076128 0.008257914
000180 fa 4f 68 3d 4f c0 3c 3c d2 6c f0 3b 9a 26 86 bc
       0.056716897 0.011520459 0.007337191 -0.016375829
000190 86 92 be 3b ab 55 45 3b 73 7e d3 3c 83 60 ae 3d
       0.005815807 0.0030110877 0.025817132 0.08514502
0001a0 ec 81 e8 38 fa e6 0e 3c 0a cc 19 bb df c8 6b bc
       0.00011086822 0.008722061 -0.0023467564 -0.014391153
0001b0 92 7d ca 3b e3 66 19 bc 28 9f b9 3d 86 a3 fd bb
       0.00617952 -0.009362909 0.0906356 -0.007740441
0001c0 5e 5e 7c 3b 8a ce 68 3c 61 48 b3 bc a9 7f e0 bc
       0.0038508396 0.014209399 -0.021885099 -0.027404623
0001d0 37 15 f9 bb 61 29 cc 3d 1a d5 08 bc c8 46 b9 bc
       -0.007601406 0.0996883 -0.008351589 -0.022616759
0001e0 48 66 6d bd d0 f8 bd bc c5 7c 82 bd 5f 83 1d bd
       -0.05795887 -0.023189932 -0.06371454 -0.038455363
0001f0 fc ba b5 3d 96 0c 25 bd c3 e1 d2 bc d6 be 57 bc
       0.08873555 -0.040295206 -0.025742417 -0.013168057
000200 be 3f 5a bd 0f 07 94 bd d9 e9 e9 bb 55 00 07 3e
       -0.053283446 -0.07227909 -0.0071384725 0.1318372
000210 22 cf fc bc c4 ec 92 bd 01 1b 65 bc 59 ce ee bb
       -0.030860487 -0.07174066 -0.013983489 -0.007287782
000220 18 19 4c bd 69 44 1a 3c be d0 2f 3e cb 89 e4 3c
       -0.04982862 0.009415724 0.17169473 0.027897736
000230 fc 64 44 3d 36 92 b2 3b b1 b1 8e 3d 00 1f 03 3d
       0.04794787 0.0054495586 0.06967486 0.032011986
000240 c1 b1 f3 3c e3 ed bc 3b fb b4 36 3c 9e 08 c2 bb
       0.029747846 0.005765663 0.011151548 -0.0059214374
000250 e2 18 9d 3c 05 5a 15 bc 0c 1c b6 3b a1 e9 95 3b
       0.019176904 -0.009115701 0.0055575427 0.00457497
000260 76 95 34 bb 76 ff 06 3a 69 43 10 bc 16 bd 53 3d
       -0.0027554906 0.0005149761 -0.008805134 0.051694
000270 c3 8f 3a 3c d8 a5 10 3b b5 94 20 3c f6 d7 7d 3b
       0.0113868145 0.0022071507 0.0098010795 0.003873346
000280 da f6 b9 bc 1e 01 f7 bb 09 1d 6e 3d ed df 5f bc
       -0.022700716 -0.007537975 0.05813316 -0.013664228
000290 15 e0 7b bc b5 7f 2f 3c 2b 4d a7 ba cc b0 6b 3c
       -0.01537325 0.0107116 -0.0012764087 0.014385413
0002a0 14 04 7e 3b 14 06 51 3d 6d 83 04 bb a4 1a 9d 3c
       0.0038759755 0.051031187 -0.0020219937 0.019177742
0002b0 08 ae 81 bb d2 d0 6e 3c 31 ed 00 3c 6e af ed 3c
       -0.0039575137 0.014576154 0.007869051 0.029014315
0002c0 cd ee 9b 3d 90 8e 4d 3a 58 d9 f7 3b 6d ac 0b 3b
       0.07613907 0.0007841373 0.007563751 0.002131249
0002d0 d0 11 91 bc b6 38 83 3c 73 a3 b3 bc 63 ff c8 3d
       -0.017708689 0.016018253 -0.021928525 0.09814336
0002e0 bc 46 ff 3b 41 0d cd bb d8 f8 a3 3b 9e 54 04 bd
       0.0077904146 -0.0062576835 0.0050040297 -0.03230726
0002f0 aa 04 c9 bc b3 ff 09 3c a6 5f b1 3d 89 e4 43 bc
       -0.024538357 0.00842278 0.086608216 -0.0119563425
000300 5b d3 0c bd 2c ef 49 bd 67 6c b1 bc d1 da 00 bd
       -0.03438125 -0.049300358 -0.021658136 -0.03145868
000310 6e 01 31 bd a0 c7 c0 3d f4 53 07 bd af 80 38 bd
       -0.043214254 0.094130754 -0.03303905 -0.045044597
000320 34 cc 67 bc 7b 9a 77 bd 4c d7 fd bc 24 c0 82 bc
       -0.014147807 -0.06045006 -0.03098645 -0.01596076
000330 88 e9 08 3e 1f 4e cd bc 54 c6 82 bd 27 0c 0a bb
       0.13370335 -0.025061665 -0.06385484 -0.0021064372
000340 0d 18 d6 ba f9 29 99 3c 71 ee 9a 3c c7 33 4e 3e
       -0.0016334072 0.018696772 0.018912526 0.20136939
000350 e6 3d 47 3d 20 f2 96 3d 56 f7 88 3d 10 b1 2f 3b
       0.048643015 0.073704004 0.066878006 0.0026808418
000360 7c 93 e3 3c 38 71 84 3c 41 67 b2 bb dd 66 5b 3c
       0.027780287 0.016167268 -0.0054444377 0.013391224
000370 e4 59 df bb 7b 49 38 3b e4 b4 5e 3b 99 34 cc 3c
       -0.0068161357 0.002811997 0.003398233 0.024927424
000380 9c 66 f3 bb 87 41 23 3c 60 0c 54 3c 3a d4 59 bc
       -0.0074280035 0.009964353 0.012942404 -0.013295228
000390 35 3a 5f 3d d2 bd c6 3c 82 fe 22 3c 94 94 b7 bb
       0.05449887 0.024260435 0.009948375 -0.0056024287
0003a0 fc b3 69 3b 16 5e ad bc d6 bc 43 bc 51 46 46 3d
       0.0035660258 -0.021163028 -0.011946877 0.048406903
0003b0 03 02 4e bc 68 5a 91 b8 88 dc 7a 3b 47 b3 0c 3c
       -0.012573722 -6.930978e-05 0.003827842 0.008587665
0003c0 00 2a 2d 3c 82 5a 1f bb 6c 1b 3b 3d 52 0d 5f 3c
       0.010569096 -0.0024315421 0.04568045 0.013614016
0003d0 81 4c ee 3c e4 a3 99 bc 36 35 0f 3c 47 03 d4 3c
       0.029089214 -0.018754907 0.008740714 0.025880469
0003e0 6c 3a c9 3c 87 ce 98 3d 66 97 92 ba d7 44 9f 3b
       0.02456399 0.07461267 -0.0011184036 0.0048605013
0003f0 bc 5c 26 3c 82 98 40 bc b5 34 86 3c 4e 42 59 bc
       0.010153946 -0.011755111 0.016382555 -0.013260437

bias f4 [28]
000000 0b 74 6a 3d af 82 9c bd 21 38 6b bd 4f ac c2 3d
       0.057239573 -0.076421134 -0.057426576 0.095055215
000010 4e db e3 ba ef 62 d6 3c 3e b3 ab 3d e6 35 8d 3b
       -0.0017384083 0.026170222 0.08383797 0.0043094037
000020 9e 84 a9 3d f6 81 42 3c c8 97 a1 bd 70 cf 07 bd
       0.08277248 0.011871805 -0.07890278 -0.033156812
000030 a4 c9 90 bc 1c 0f 8f bc 47 0a 3e bd 62 73 37 bd
       -0.017674275 -0.01746326 -0.04639652 -0.044787772
000040 e4 f6 e5 bc e2 ce 28 bc 02 c4 fc bb 9a bf 4c b9
       -0.028071828 -0.010303231 -0.0077137956 -0.00019526333
000050 c5 69 93 3d 98 c5 0b 3d 59 71 67 bd ad dc 35 3d
       0.07197908 0.034123987 -0.05650458 0.044399906
000060 05 ce 32 3c 8d e9 85 3b 84 25 90 bc 90 21 8b bb
       0.010913377 0.0040866793 -0.017596014 -0.0042459443
